…
来完成。运行结果如下：\n1 2 3 4 5 6 7 8 9 10 11 12 13 14 15 16 17 18 19 20 21 22 23 24 25 26 27 28 29 30 31 32 33 34 35 36 37 38 39 40 41 42 43 44 45 46 47 48 49 50 51 52 53 54 55 56 57 58 59 60 61 62 63 64 65 66 67 (cntk-py35) C:\\Users\\Jacob\u0026gt;python C:\\Users\\Jacob\\Downloads\\mnist_mlp.py Using CNTK backend Selected GPU[0] GeForce GTX 850M as the process wide default device. 60000 train samples 10000 test samples _________________________________________________________________ Layer (type) Output Shape Param # ================================================================= dense_1 (Dense) (None, 512) 401920 _________________________________________________________________ dropout_1 (Dropout) (None, 512) 0 _________________________________________________________________ dense_2 (Dense) (None, 512) 262656 _________________________________________________________________ dropout_2 (Dropout) (None, 512) 0 _________________________________________________________________ dense_3 (Dense) (None, 10) 5130 ================================================================= Total params: 669,706 Trainable params: 669,706 Non-trainable params: 0 _________________________________________________________________ Train on 60000 samples, validate on 10000 samples Epoch 1/20 D:\\Program Files\\Anaconda3\\envs\\cntk-py35\\lib\\site-packages\\cntk\\core.py:361: UserWarning: your data is of type \u0026#34;floa
…
